models/da94e667-78a1-4e1d-8866-ab4afd01aaf3/model.pth (torch, 12094 bytes, 12 tensors)

network.0.weight f4 [16, 32]
000000 a1 19 16 be e5 62 0f 3e f2 1d 68 bd 1e f4 98 bd
       -0.14658214 0.14002569 -0.056669183 -0.07468437
000010 fc c5 35 be b3 ba 29 be ac a3 09 3e 5a e8 87 bc
       -0.17751306 -0.16575126 0.13441342 -0.016590286
000020 60 80 4f bd 1c 43 b7 bd 42 86 d2 3d 65 98 8b bd
       -0.050659537 -0.08948347 0.10279514 -0.06816176
000030 41 60 cc 3d 70 38 a2 3c 9d 7b 0d be 78 0f bb 3d
       0.099792965 0.019802302 -0.13816686 0.0913381
000040 57 16 a5 3c a4 20 15 3e 0c 6e 87 3d 2a af 1d 3e
       0.020152254 0.14563233 0.06612787 0.15398851
000050 d1 53 cb bc e0 9c b6 3d e1 a9 c7 3d 76 c7 a3 3d
       -0.02482024 0.0891664 0.09749199 0.079970285
000060 cc 7c 0c 3d 34 e5 29 3d 24 cf 94 bc 1c ba fb 3d
       0.034298703 0.04147835 -0.018165179 0.12291357
000070 59 8c 20 3e 30 93 81 3d 9c e7 37 bd 6c 35 ac bd
       0.15678538 0.06326902 -0.044898614 -0.08408627
000080 6b 12 97 bc b2 e6 10 3e 10 3f 05 be d2 ec 5b 3b
       -0.0184414 0.14150503 -0.13012338 0.0033557904
000090 80 d6 a6 bd d2 e7 17 be 51 6f d1 3d 78 1c 9e 3d
       -0.081463814 -0.14834526 0.1022631 0.07720274
0000a0 f2 6f 01 bc 39 12 01 bd 16 07 66 bb 76 eb 8c bd
       -0.007900225 -0.03151152 -0.0035099438 -0.06880848
0000b0 b5 14 bd bd 0b 30 4d 3d c3 4a 08 3e 7e 84 19 be
       -0.09232465 0.050094645 0.1330977 -0.14991948
0000c0 ca 6b 9f 3d 68 38 ff 3d cc b0 21 3e 93 76 26 3d
       0.07784231 0.124619305 0.15790099 0.040640425
0000d0 9b 3b fb bb 0b 60 43 3d ba 42 79 bd de 0d 19 bb
       -0.0076670176 0.047699016 -0.06085465 -0.0023354213
0000e0 f1 9c e1 bd 86 fe 1c be e4 70 bd bd d1 66 63 3d
       -0.11016262 -0.15331468 -0.09250048 0.055517975
0000f0 6d 78 f1 3c 94 be 1c 3e a4 1a bf bc f3 7d ed 3d
       0.029476369 0.15307075 -0.023328133 0.115962885
000100 29 1b 9d bd ed 43 e9 3d f2 79 15 3e 62 77 4e bc
       -0.07671196 0.11389909 0.145973 -0.012601705
000110 74 d4 2d bc 47 cd be bd 85 23 a4 bd e7 83 12 bd
       -0.010609735 -0.09316497 -0.08014587 -0.035770323
000120 45 69 7f 3d 2b 8f 16 bd 58 a9 5b 3c 33 1a 84 3d
       0.062356252 -0.03675763 0.013407074 0.064503096
000130 cf 93 5b bd 3d 17 a2 bd 1f 7e 0b 3d fc 50 34 be
       -0.053607758 -0.079145886 0.034055825 -0.17609018
000140 5a ee 1c be 4c 6d 00 be 1d ad 04 3d 13 5d a4 bd
       -0.15325299 -0.12541693 0.032391656 -0.08025565
000150 a4 e9 09 be b0 7a 22 be 7a 28 0c bd a7 a7 30 3e
       -0.13468033 -0.15867114 -0.03421829 0.17251454
000160 49 8d d7 3a 8f 10 fb 3d bd 0e 4c bd fc 2d 29 be
       0.0016445304 0.12259018 -0.049818743 -0.16521448
000170 3a 98 c7 bd f5 7d be 3d 3b 83 1c 3e 9a 50 0f 3e
       -0.09745832 0.09301368 0.15284435 0.13995591
000180 17 ce cf 3d 6d 5a 3c bd cc 43 2e 3d 91 79 85 3d
       0.101467304 -0.045984674 0.042545125 0.065173276
000190 57 ce 0d be f3 c2 f7 3c 70 7b ae 3d e3 a4 48 3d
       -0.13848244 0.030244326 0.085196376 0.048985373
0001a0 8e f9 28 be ae b3 32 3d 07 c8 26 bd 91 e4 56 3b
       -0.16501448 0.043628387 -0.040718105 0.0032790045
0001b0 0e 9a d9 3b 7a d4 83 bd e0 0d 18 be ce a9 a9 bd
       0.006640679 -0.06437011 -0.14849043 -0.08284341
0001c0 07 ce b7 3d 9b d4 d2 bd 7b 41 94 3d e7 ec 28 3e
       0.089748435 -0.102944575 0.07239052 0.16496621
0001d0 0c 1f 0d be 00 ad 65 3d 26 1b 18 bd 05 4b 8a 3d
       -0.13781375 0.05607319 -0.037135266 0.0675259
0001e0 66 7c c1 bd f1 df ef 3d 05 d4 27 be 70 e5 d7 3d
       -0.09447555 0.11712635 -0.16389473 0.105418086
0001f0 63 0b df 3d 13 e4 20 be 88 05 15 be 6e 93 1b be
       0.10890844 -0.15712003 -0.14552891 -0.15192959
000200 ca 23 2d be 48 73 1b bd 0b f9 20 be 28 6a c3 bc
       -0.16908184 -0.037951738 -0.15720002 -0.02385433
000210 a6 a3 a4 bc e2 d8 ea 3c a1 57 0e be a5 ab 1f 3e
       -0.020097565 0.02866787 -0.13900615 0.15592821
000220 71 20 90 3c ad f7 36 3c 10 ca 84 bd 00 3f 7e bc
       0.017593594 0.011167449 -0.06483853 -0.01551795
000230 52 21 21 be 06 02 35 be be ec e7 bd 0c 25 6c bd
       -0.15735367 -0.17676553 -0.11324452 -0.05765252
000240 19 01 9b 3d 23 78 9b 3d 15 33 8e bd 40 7d 12 3e
       0.07568569 0.07591274 -0.06943337 0.14305592
000250 94 f5 9e 3b aa 94 be 3d cb 5c bf bd 14 b4 1d 3e
       0.0048510525 0.09305699 -0.09343871 0.15400726
000260 a8 c0 e8 bd 63 c3 ef 3d d3 b3 a1 bc 00 45 4f 3d
       -0.11364871 0.11707189 -0.019739067 0.050602913
000270 0f 4e 8c 3c 95 5f 96 3d 00 c1 01 3e 10 89 b0 bc
       0.017127065 0.073424496 0.1267128 -0.021549731
000280 45 a3 4c bc 42 c3 10 3e 93 86 f9 bd 40 05 fb 3d
       -0.012490098 0.14136985 -0.12183871 0.12256861
000290 9b f6 ee bc 08 87 3f 3c ea 87 12 be a5 aa 02 be
       -0.029170325 0.011689909 -0.1430966 -0.12760408
0002a0 55 83 e9 3b 71 30 78 3d a4 5e 1a be 35 3e c7 bd
       0.0071262517 0.060593072 -0.15075165 -0.09728662
0002b0 f2 64 c7 3d 2b 58 32 be a7 b4 14 3e a3 57 3f 3d
       0.09736051 -0.17416446 0.14522038 0.046714436
0002c0 11 a5 d8 3d 39 1f 9f bd 62 d1 a2 bd 7d d5 d1 3d
       0.10578359 -0.07769627 -0.07950093 0.10245798
0002d0 6e f3 c8 3d be 5e f3 3c 19 5d 18 3e 7b 04 77 bd
       0.098120555 0.029708263 0.14879264 -0.060307007
0002e0 57 cc 98 3d e5 d0 93 3d 0a 9d 9b bc 82 40 a0 bd
       0.0746085 0.07217578 -0.01899578 -0.07824804
0002f0 ae 12 1d 3e c4 9c b2 bd ba 02 25 be 3b 18 09 3e
       0.15339157 -0.08721307 -0.16114321 0.1338815
000300 ac 9b 3e 3d 7d 42 14 be d3 17 df bd bc 6d 8e bd
       0.04653518 -0.14478488 -0.10893216 -0.06954524
000310 d0 1e 24 bd 11 68 fb 3d 0c 5f bc 3d 32 3b 3e 3d
       -0.040068448 0.122757085 0.09197816 0.04644317
000320 25 29 94 3d 5c 2a 2c 3e 4b d9 75 3d 1c 58 b8 3d
       0.0723441 0.16813034 0.06002168 0.090011805
000330 b4 c6 89 3c ca 2b 65 bc 4e 47 e9 bd 00 92 71 bd
       0.016818382 -0.013987491 -0.113905534 -0.058977127
000340 94 d3 d4 3d 69 de f0 3d cb f9 33 bd 16 13 25 be
       0.10391918 0.11761171 -0.043939393 -0.16120562
000350 22 b4 bd 3d d6 3e c8 3c 29 7d a9 bd d2 30 f9 bd
       0.09262873 0.024444025 -0.082758255 -0.12167515
000360 b0 1d f0 bd a0 f7 ea 3d bc 78 2d be 49 31 f9 bd
       -0.117244124 0.11473012 -0.16940588 -0.121676035
000370 93 e9 0a 3d 24 e4 36 3e c2 fa 1a 3d 53 1f 30 be
       0.03391416 0.17860466 0.037836798 -0.17199449
000380 d8 4b 31 be 6c 79 bd bd 98 09 0e 3e b5 8b 09 3d
       -0.17314088 -0.09251675 0.13870847 0.0335805
000390 d3 33 28 be e9 cc 17 be b9 44 5d 3d c0 1c 96 bd
       -0.1642602 -0.14824261 0.054020617 -0.073297024
0003a0 cb 3c eb 3c 97 37 b4 3c d3 9c 0e 3e 91 77 24 be
       0.028715512 0.021999164 0.13927011 -0.16061236
0003b0 31 32 bc bd 37 fc 80 3d fb 71 06 3c 7f 9b 07 be
       -0.09189261 0.06298106 0.008205886 -0.13242911
0003c0 7b 74 90 3c bb 03 9b 3d 11 e9 bb bd a7 55 7a bc
       0.017633667 0.07569071 -0.09175313 -0.01527921
0003d0 67 04 24 3e eb df 6b 3d a9 3c 8c 3c 95 44 70 bd
       0.16017304 0.05758659 0.017118769 -0.058659155
0003e0 d6 87 3e bc 4e b8 a1 3d 1a a4 10 be 53 9f 60 3d
       -0.0116290655 0.078964815 -0.141251 0.054839443
0003f0 65 e2 06 3e be 3d 32 3d 24 a6 12 bd 7e de bd bd
       0.131723 0.043515913 -0.035802975 -0.09270953

network.0.bias f4 [16]
000000 08 fa 4e 3d f2 e7 57 bd bd 43 30 3d e4 4e 8e 3d
       0.050531417 -0.052711435 0.04303335 0.06948641
000010 93 59 eb bd c9 d0 41 bd 29 41 fe 3d 2f 51 db 3c
       -0.11491694 -0.047318254 0.12414772 0.02677211
000020 f1 27 65 3d 33 b1 a4 bd 67 46 a4 bc cf 77 13 be
       0.055946294 -0.080416106 -0.020053102 -0.14401172
000030 7b 9f 30 3e 07 aa 09 be e4 b8 cd bc 2f c4 96 3d
       0.17248337 -0.13443767 -0.025112577 0.07361638

network.3.weight f4 [4, 16]
000000 4d 4b 6f 3e 7d 02 1a be 0b 12 1f 3e f2 7e f2 bd
       0.23368569 -0.15040012 0.15534227 -0.11840619
000010 1f 00 e1 3d b0 45 7f 3e ae dd 20 3e dc c8 5a be
       0.10986351 0.24928927 0.15709564 -0.21365684
000020 68 9e 1c 3e fd 60 03 3d 1a 2b 60 be 13 c1 f1 3d
       0.15294802 0.032074917 -0.21891442 0.11804404
000030 e2 b8 7f be af cc 3d be 6e 77 5b 3e fe 1b e7 3d
       -0.24972871 -0.18535112 0.21432278 0.11284636
000040 26 2f dc 3c 46 3c 24 3d ec 13 1f 3d 11 d0 4a be
       0.02687795 0.040096544 0.03883736 -0.19805934
000050 dd ba 51 be 34 01 82 bd e3 12 12 3e 30 d5 35 bd
       -0.20481439 -0.06347886 0.14265017 -0.044392765
000060 52 3d 7f bd 03 e6 7d be a8 b9 d1 bd 64 3f 65 3e
       -0.06231434 -0.24794774 -0.10240489 0.22387463
000070 7f 0e d4 bc 63 13 8a 3d 00 14 ae bc 30 90 2e 3e
       -0.025885819 0.06741979 -0.021249771 0.1704719
000080 c3 de 71 3e 82 8e cb 3c 35 d1 bb bd 3f dd 51 3e
       0.23620133 0.024848226 -0.091707624 0.20494555
000090 cb 7c 4c be 73 69 eb 3d 5d fd d4 3d b6 9d 4e be
       -0.1996948 0.11494722 0.10399888 -0.2017735
0000a0 b9 ad 36 bd 9e 76 a7 3d 29 06 0c 3e 25 b7 7c bd
       -0.04459927 0.08176921 0.13674225 -0.061698098
0000b0 a7 6e dc 3b a3 32 24 be 0e f5 0e bc bc 09 c0 3d
       0.006727058 -0.16034941 -0.008725418 0.09376857
0000c0 94 44 0a be 1a 29 5f be 4d d0 00 be a8 f4 08 bd
       -0.13502723 -0.21793023 -0.1257946 -0.033436447
0000d0 38 ab 02 be 92 c4 6e 3d ea 49 a4 bd 39 84 66 3e
       -0.12760627 0.058292933 -0.080219105 0.22511376
0000e0 a4 6f f7 3d c1 3d 61 be f8 7f db 3d 8f c6 84 3d
       0.12081841 -0.21996213 0.107177675 0.064831845
0000f0 45 30 e6 3d 74 4d 18 be 51 31 08 be 0b 75 a5 3c
       0.112396754 -0.14873296 -0.13300063 0.020197412

network.3.bias f4 [4]
000000 bc c7 b6 3d 0a ca 7c 3e 1d 94 3f 3e ae 2f 3b 3e
       0.08924815 0.24686447 0.18708844 0.18279907

exp_avg f4 [16, 32]
000000 c6 79 dc 3b d1 69 6d bc eb 62 6e bb bb d9 da 3a
       0.0067283837 -0.014490561 -0.0036374878 0.0016696969
000010 8a 76 79 ba 5b b2 07 3c e5 cc 5d bb 92 f1 47 3a
       -0.000951626 0.008282269 -0.003384405 0.00076272443
000020 a6 e8 ae bb fa dc 28 ba 6c 46 30 bc bb fd b4 bb
       -0.0053377924 -0.00064416195 -0.010758977 -0.005523411
000030 3f b3 b9 bb a2 2e fb bb 85 81 b2 bb e0 5f 1e 3c
       -0.0056671198 -0.007665471 -0.005447569 0.009666413
000040 22 81 9e 3c 8c d7 b6 bb ba 0c 56 3c c5 ba e5 3b
       0.019348685 -0.0055798944 0.013064558 0.00701079
000050 20 47 16 bc 17 cc 91 3b c9 7c 39 b7 c3 fe 26 3c
       -0.009172231 0.0044493782 -1.1055913e-05 0.010192576
000060 35 49 53 3c 4c 03 a8 3b ec c3 80 3a 23 c0 10 bc
       0.012895872 0.005127346 0.0009824014 -0.008834871
000070 b8 c4 1d 38 63 0d 11 3c 8b c0 33 3c b6 bb 4d 3b
       3.7614926e-05 0.008853289 0.010971199 0.0031392402
000080 42 34 1d 3b 1f 89 ad 3a 78 e3 8a 3a c7 9d 30 bc
       0.0023987447 0.0013239718 0.0010596355 -0.010779805
000090 a5 99 ae 3a 86 ab 79 3b 17 d7 f2 ba ed 3c 25 3b
       0.0013320936 0.003809662 -0.0018527237 0.0025213317
0000a0 e8 98 76 bb 04 47 1e bb ac e7 72 3b e1 82 16 3a
       -0.003762776 -0.0024151215 0.0037064357 0.00057415484
0000b0 d2 15 56 3c c5 6d 92 39 06 19 b6 ba fc 47 03 bb
       0.013066726 0.00027929075 -0.0013892956 -0.002003192
0000c0 a1 b7 84 bb 68 5d 00 bb 1d 49 8a bb 65 b2 c2 3b
       -0.0040502106 -0.0019586924 -0.0042201416 0.0059416764
0000d0 e9 1e cc 3b a8 bc 29 bc b1 32 cc 3b 91 fe ae bb
       0.0062292707 -0.010359921 0.006231629 -0.0053404053
0000e0 be 1e 60 3a 99 c8 a8 3a 24 26 ba bb f6 c4 86 bb
       0.0008549503 0.0012877166 -0.0056808162 -0.004112835
0000f0 2f d3 1f ba a5 06 ac ba c2 05 64 3a f0 3f 22 bb
       -0.00060968375 -0.0013124539 0.0008698368 -0.0024757348
000100 fb ce 17 bb 71 5f aa ba d8 a4 72 bc f7 02 d5 3b
       -0.0023164141 -0.0012998414 -0.01480981 0.0065005976
000110 ba 1a 2a 3c 4a ec da bb 21 5d d7 3b 55 3e 13 3c
       0.010382349 -0.006681 0.006572381 0.008987029
000120 78 2a aa 3b c9 ba 8c 3b 13 4f e9 bb 58 a7 f7 3a
       0.005193051 0.0042947275 -0.007120022 0.0018894477
000130 57 e5 fe bb 97 e9 8b ba b9 07 af 3b 7f 43 54 b8
       -0.0077788043 -0.0010674474 0.005341497 -5.06076e-05
000140 af e1 4d 3c 77 68 07 bb 54 95 11 bb 17 d8 9b 3a
       0.012566014 -0.002066163 -0.002221425 0.0011889961
000150 e6 72 98 bb 56 41 83 b8 29 81 bd 3b a9 5c 85 ba
       -0.004652369 -6.2587365e-05 0.0057832194 -0.001017471
000160 c4 59 c2 bb 81 7e 60 3b e6 35 e7 39 e3 d1 23 3c
       -0.005931111 0.003425509 0.0004409991 0.009998771
000170 d6 ef 11 3c 84 60 15 bb 3f 08 9d bb 2f 34 e2 3b
       0.008907279 -0.0022793123 -0.004792243 0.0069031934
000180 a8 e0 b1 3b d2 80 ee 3a 0b 1d af 3c e2 07 6c 3b
       0.0054283924 0.001819635 0.021376153 0.003601544
000190 b3 69 c3 bc 92 13 8b 3b f4 c8 f1 3b cb 29 a8 3c
       -0.023854112 0.0042442763 0.007378692 0.020527741
0001a0 f4 06 82 3c c9 7a b2 3b 4a 92 74 3c a9 bc d3 3b
       0.015872456 0.005446766 0.014927456 0.006461699
0001b0 f5 7b 8b 3c e3 af c1 3b 7f 27 ba 3b 48 ae 40 bc
       0.01702688 0.00591086 0.005680978 -0.011760302
0001c0 f7 36 84 3b 27 1a f3 3b 14 a8 c6 3c 16 17 81 3c
       0.0040348726 0.007418889 0.024250068 0.015758079
0001d0 28 f3 a9 3b 94 d5 1c 3b a4 11 4c ba c9 f8 a2 3a
       0.005186457 0.0023931013 -0.0007784611 0.0012433763
0001e0 3b ed 5f 3c fc 49 43 3c b4 32 63 bc 8a 48 d0 bc
       0.0136674 0.011919495 -0.013867069 -0.025425214
0001f0 9d 7e 9d 3c b3 e2 26 3c 01 c6 89 3c f0 9b 40 3b
       0.019225413 0.010185885 0.016818048 0.002938982
000200 78 74 46 bb 7a c3 b4 bb 2c b4 08 3b 79 4b eb ba
       -0.0030281823 -0.0055164667 0.0020859344 -0.001795157
000210 5d 61 95 3b fb 03 ef ba 1e fe c0 3b 07 4a f8 3b
       0.0045587257 -0.0018235439 0.005889668 0.007577184
000220 29 f7 66 3b df a2 1e bc e0 d4 70 3b eb 3c 2c bc
       0.0035242534 -0.009682386 0.0036747977 -0.010512571
000230 22 cf ae 3a 7f 6c b3 3b 16 68 00 3b 71 bb 40 3c
       0.0013336877 0.00547558 0.001959329 0.0117634395
000240 52 12 b7 3b 84 b9 15 ba 30 d8 49 3b d0 ed b5 3b
       0.0055869007 -0.0005711543 0.0030799024 0.005552031
000250 f6 2d 1b 3b b0 58 4b b8 ac f8 b1 3b ed 65 59 bb
       0.0023678518 -4.848157e-05 0.0054312553 -0.0033172325
000260 15 70 0f 3b 90 5c 93 bb 7a 61 4a 3a 8b b8 3e bb
       0.0021886874 -0.0044971183 0.00077202136 -0.0029101695
000270 86 21 5a 3b 29 45 0a 3c 81 f7 b0 39 c6 ef 86 3b
       0.0033284142 0.008439341 0.0003375374 0.0041179387
000280 83 01 50 3b bb 32 68 bb 86 f2 b4 3b d7 15 55 ba
       0.0031739182 -0.0035430628 0.005522075 -0.00081285596
000290 b5 a1 72 ba c4 55 74 3b 94 69 f4 3b 04 5b eb 3a
       -0.00092556636 0.0037282566 0.007458875 0.0017956202
0002a0 69 1e 8c bb 6d 36 50 3a 89 58 76 3c a0 df 42 3b
       -0.004276086 0.00079426804 0.015035757 0.0029735342
0002b0 2d 29 1d 3b 6d 2e 17 bb bf 65 3f bb 49 78 1a 3c
       0.0023980842 -0.0023068443 -0.0029204933 0.009428092
0002c0 c3 27 18 3b 6b b6 b7 b9 2e 1e 3d 3b e5 69 e0 3b
       0.002321706 -0.00035040392 0.00288571 0.006848561
0002d0 9c f8 9d 3b 6b 81 9e 3b 47 ce e5 3a fc f0 76 3b
       0.0048208963 0.004837205 0.0017532789 0.003768026
0002e0 a0 d8 4a ba a3 c3 95 39 6a 74 0f 3c 3f 7a 86 bb
       -0.0007737968 0.00028565255 0.008755783 -0.0041039283
0002f0 dc 27 7f 3b a5 63 27 3c 01 6b c9 bb 69 e5 1c 3b
       0.003893367 0.010216628 -0.006146789 0.002394045
000300 c9 2e 2b bb 2c e9 17 3b 87 04 28 bc 6e 44 1b bb
       -0.0026120415 0.0023179753 -0.010254986 -0.002369191
000310 51 15 85 bb 54 c7 de 3b ee 54 3c 3b 6e 5b d7 3a
       -0.004061379 0.006798664 0.0028737145 0.0016430446
000320 8f e0 c6 bb b4 b2 c3 bb b0 3e 02 bc 4b 3f 88 ba
       -0.00606925 -0.005972231 -0.007949516 -0.0010394839
000330 75 a3 42 bb 69 83 6d bb a9 e1 da ba dc f7 12 3b
       -0.0029699479 -0.0036241657 -0.0016699332 0.0022425568
000340 5a 98 06 3b 93 b6 9b bb 3f 31 7e bb 71 30 a4 3a
       0.0020537586 -0.004751989 -0.0038786677 0.0012526644
000350 9d f1 63 bb 44 51 61 3b 05 ea 9d 3a 9f 63 60 3b
       -0.0034781464 0.0034380713 0.0012047893 0.0034239066
000360 85 12 f0 39 a5 6b 9e 3b 97 10 43 ba f7 a2 54 3a
       0.00045790165 0.0048346096 -0.0007441132 0.0008111442
000370 e4 52 40 3b f5 f3 02 ba 2f 1e 4e 3c a3 a4 ec ba
       0.0029346282 -0.0004995459 0.0125804385 -0.0018054437
000380 38 b9 f2 ba de 17 7a 3c e2 cf 67 3c 65 58 de 3b
       -0.0018518334 0.015264479 0.014148684 0.00678544
000390 9c d1 db bb df 59 d7 bb 5b cc 39 bb 14 83 88 bb
       -0.006708337 -0.0065719928 -0.0028350565 -0.0041660164
0003a0 66 05 bb 3b 9c 9f ee 3b 0e 3e 70 3c 38 bc d9 bb
       0.0057074307 0.0072822105 0.0146632325 -0.006644752
0003b0 7d 47 6a 3a 5d 05 1b 3b df 08 f0 3a f7 b0 b0 3b
       0.0008937044 0.002365432 0.0018313191 0.0053921896
0003c0 45 eb 6f bb d2 89 f5 3a 4c 95 32 bc dd de 9f 3a
       -0.0036608737 0.001873309 -0.010899853 0.0012197156
0003d0 41 a3 04 bb f0 07 a1 3c 1e 32 5e bc cb ec 44 ba
       -0.0020238908 0.019657105 -0.013561754 -0.00075120915
0003e0 b5 48 bb bb a5 b7 df ba 05 5c 7c bb 53 40 59 3a
       -0.0057154545 -0.001706828 -0.0038506996 0.0008287478
0003f0 c2 57 9b bb f1 a3 a5 3b 42 89 1d bc 9f 72 f1 ba
       -0.004740686 0.0050549437 -0.009615244 -0.0018421

exp_avg_sq f4 [16, 32]
000000 ba 34 42 37 e3 ba 97 37 8c ec 46 37 74 53 93 37
       1.1575577e-05 1.8087629e-05 1.1856795e-05 1.7562626e-05
000010 cd 4e f1 36 f0 5e da 36 51 ac 40 37 db 9c c0 37
       7.1915333e-06 6.5079585e-06 1.1484212e-05 2.2961225e-05
000020 b0 26 d9 37 ab ad 53 37 6a 2d 32 37 72 9b 0b 37
       2.5886431e-05 1.2617015e-05 1.0620201e-05 8.321238e-06
000030 10 02 81 37 54 3b 35 36 ef a1 92 37 4a c4 c2 36
       1.5378959e-05 2.7005635e-06 1.7479962e-05 5.8045016e-06
000040 bc b9 98 37 3c b3 70 37 6c b8 a2 37 08 dc 25 37
       1.8206301e-05 1.4346846e-05 1.9397783e-05 9.885996e-06
000050 7f 6b 1c 37 ec 3a c7 37 10 a0 97 36 f8 aa a3 37
       9.323353e-06 2.3750086e-05 4.5187844e-06 1.9510728e-05
000060 de 6d 03 37 f7 e9 87 37 93 f8 47 37 b9 c6 c4 36
       7.833789e-06 1.6202202e-05 1.19192e-05 5.8643895e-06
000070 9b 99 87 37 e3 2a 57 37 21 2a af 37 29 25 3c 37
       1.6164782e-05 1.2824984e-05 2.0881243e-05 1.1214325e-05
000080 23 b1 24 36 9f 90 a2 36 5b 20 30 36 b5 a2 b3 36
       2.4541011e-06 4.8448123e-06 2.6244877e-06 5.3535573e-06
000090 84 be bc 35 89 35 fd 35 3d 8f 36 35 6b 56 96 36
       1.4062539e-06 1.886555e-06 6.800872e-07 4.4804087e-06
0000a0 50 49 c3 35 f6 4b 15 37 6c c9 46 36 34 96 4c 36
       1.4549969e-06 8.898778e-06 2.9621542e-06 3.0485799e-06
0000b0 3f 95 a4 36 94 71 d0 36 84 74 53 37 8a ad d6 35
       4.9049554e-06 6.2121053e-06 1.26037085e-05 1.5994749e-06
0000c0 6d 60 a9 36 67 c6 58 36 c8 5a f1 36 e1 be ea 36
       5.047818e-06 3.2301994e-06 7.192928e-06 6.9959647e-06
0000d0 a0 0f c3 36 02 08 0f 37 42 11 00 37 62 54 34 36
       5.813272e-06 8.525329e-06 7.633413e-06 2.6871207e-06
0000e0 00 2c c0 36 c5 af 86 36 e6 15 8a 36 52 7a 12 36
       5.727168e-06 4.0139735e-06 4.11527e-06 2.1826895e-06
0000f0 f7 64 04 36 b1 40 38 36 44 fc 97 36 da db 19 36
       1.9728302e-06 2.7455792e-06 4.5295183e-06 2.2926747e-06
000100 f0 44 12 36 c5 de 8e 37 ba a4 82 37 dd d3 a1 36
       2.1795822e-06 1.7031454e-05 1.5573914e-05 4.822838e-06
000110 49 12 22 37 cf d4 9b 37 23 33 33 36 70 2f b1 36
       9.66021e-06 1.8576537e-05 2.6702844e-06 5.2805335e-06
000120 83 58 c0 36 b1 4b 6b 37 fc 2c 9e 37 cb fb 18 37
       5.73235e-06 1.4024715e-05 1.8856015e-05 9.118531e-06
000130 57 67 54 37 fe 50 3c 37 ca 14 13 37 c8 99 c4 36
       1.2660245e-05 1.1224531e-05 8.766723e-06 5.8591577e-06
000140 dc 30 15 37 f2 2c f6 36 b4 15 2b 37 bf 9e 0a 37
       8.892468e-06 7.3366036e-06 1.0197447e-05 8.262402e-06
000150 94 b2 04 37 7d d9 70 37 04 4d a6 37 69 1d 83 36
       7.909392e-06 1.4355753e-05 1.9824605e-05 3.907528e-06
000160 08 a4 c0 36 99 4b 02 36 43 73 8f 37 fd 68 7d 37
       5.7411416e-06 1.9415513e-06 1.7100601e-05 1.510442e-05
000170 15 75 e9 36 a9 9e ad 36 3b 7c df 36 2d 21 e2 36
       6.9575713e-06 5.1742722e-06 6.66038e-06 6.739187e-06
000180 7a f9 8d 38 6b 20 4c 37 47 ff 81 37 b2 05 07 38
       6.7698726e-05 1.2166895e-05 1.5496871e-05 3.2191812e-05
000190 0d e1 ae 37 c4 4e 8b 37 de dd 54 37 67 1c 4a 38
       2.0847214e-05 1.660677e-05 1.2687842e-05 4.8187005e-05
0001a0 3b 6f 85 37 be 59 5c 38 e9 83 bc 37 8a 21 e0 37
       1.5906631e-05 5.2535666e-05 2.2472772e-05 2.6718499e-05
0001b0 1d 53 28 38 ba 5c 98 38 1c 4a 26 38 59 cc 99 37
       4.0131727e-05 7.2651965e-05 3.9646504e-05 1.8334178e-05
0001c0 2e e7 32 37 de d4 13 38 73 23 c8 37 76 1d c2 37
       1.06634525e-05 3.524578e-05 2.3858365e-05 2.3140321e-05
0001d0 34 f3 54 38 19 99 96 37 8a 0e f1 37 5b 38 0a 37
       5.077124e-05 1.7952685e-05 2.8736209e-05 8.238562e-06
0001e0 6a 1f 48 37 67 aa 09 38 31 2c c8 37 97 9c 29 38
       1.1928243e-05 3.2822045e-05 2.3862436e-05 4.0438576e-05
0001f0 12 f8 55 38 eb 28 0c 37 61 fc c8 37 d8 47 00 38
       5.101419e-05 8.354177e-06 2.3959381e-05 3.0584488e-05
000200 e5 98 81 36 c5 3a 53 37 b1 a8 28 37 e1 95 87 36
       3.862299e-06 1.2590263e-05 1.0052857e-05 4.0407617e-06
000210 fc 01 16 37 9d de 72 36 40 0e 9c 36 7c 67 48 37
       8.941159e-06 3.6190388e-06 4.650821e-06 1.1945023e-05
000220 0c 8f e4 36 3f 44 da 36 77 00 67 37 73 08 ab 37
       6.8115824e-06 6.504851e-06 1.3768781e-05 2.0388723e-05
000230 ae fd fa 35 1f 52 5b 36 93 63 20 36 1d 10 0e 37
       1.8700282e-06 3.2681344e-06 2.3899818e-06 8.467611e-06
000240 6e 0a 8c 36 be 5e b0 36 02 e3 17 37 ac a3 79 37
       4.1735393e-06 5.256238e-06 9.053156e-06 1.4879664e-05
000250 7f cb ee 36 6b 92 0d 37 92 50 a0 36 26 69 3c 36
       7.116643e-06 8.4383455e-06 4.777751e-06 2.8075387e-06
000260 16 5a 0f 37 14 50 91 36 3f 22 81 37 cb ea bd 35
       8.544439e-06 4.330659e-06 1.5393945e-05 1.4149931e-06
000270 03 6f 91 36 df 13 21 37 4c df db 36 4d 71 c0 36
       4.33426e-06 9.600974e-06 6.552704e-06 5.735236e-06
000280 11 9c 82 36 ab f5 ab 36 10 f9 8b 36 21 16 76 36
       3.8924704e-06 5.1247966e-06 4.1715175e-06 3.6669737e-06
000290 52 7a 95 36 55 e4 30 36 81 42 ae 36 c4 af d5 36
       4.454786e-06 2.635895e-06 5.193346e-06 6.3683565e-06
0002a0 08 a7 42 36 de 34 b6 36 9c 67 55 37 4d 2e 4a 36
       2.9005478e-06 5.430177e-06 1.2719913e-05 3.0127296e-06
0002b0 28 bc 01 36 48 33 f4 36 1f 2f 6d 37 90 1d 05 37
       1.933202e-06 7.2777366e-06 1.4137272e-05 7.934301e-06
0002c0 43 02 67 37 ca af 88 36 fc a5 06 36 d6 46 06 37
       1.37691995e-05 4.0735804e-06 2.0064172e-06 8.003515e-06
0002d0 34 29 a5 36 e7 b4 ba 36 ae 2e 4d 37 bf 9f ae 36
       4.92218e-06 5.5642918e-06 1.2229821e-05 5.204201e-06
0002e0 4b 0a 6e 36 63 94 6b 35 7c 2c d0 36 8d 4c 98 36
       3.5470755e-06 8.7760253e-07 6.2040617e-06 4.5388647e-06
0002f0 56 44 8f 36 f4 7d f7 36 17 e7 cb 36 26 c1 b6 35
       4.2696875e-06 7.3758365e-06 6.076774e-06 1.361627e-06
000300 69 6e 71 36 53 6d a9 35 5f 52 7b 36 38 c3 0b 36
       3.5976066e-06 1.2623299e-06 3.744986e-06 2.0826246e-06
000310 fe f3 16 37 c5 a0 c4 36 c9 25 d3 36 e3 3b 5b 36
       8.997506e-06 5.859971e-06 6.292689e-06 3.2668402e-06
000320 59 da 45 37 04 17 a9 36 92 5c 22 36 4a 95 2d 36
       1.1792953e-05 5.039272e-06 2.4193764e-06 2.5865907e-06
000330 2c 4c 45 36 56 ce 9c 36 31 ac 90 36 de 98 a8 36
       2.9399625e-06 4.673183e-06 4.31158e-06 5.0245862e-06
000340 67 c7 99 35 cd 79 d8 36 57 77 83 36 4b 8e 68 36
       1.1457422e-06 6.451481e-06 3.917997e-06 3.465352e-06
000350 c4 db 02 36 89 1c 59 36 8a d6 3d 36 96 6e a0 36
       1.949943e-06 3.235213e-06 2.8288073e-06 4.7812455e-06
000360 11 1a a6 35 37 90 85 36 d1 fb a1 36 d2 9c 58 36
       1.237555e-06 3.9804977e-06 4.827489e-06 3.227779e-06
000370 e1 10 67 36 d0 13 57 36 a0 36 1e 37 62 7f f3 35
       3.4431507e-06 3.204903e-06 9.430252e-06 1.8141984e-06
000380 43 35 01 37 f4 63 11 38 e4 04 17 38 c4 1a b5 36
       7.7014e-06 3.4663783e-05 3.600576e-05 5.3973363e-06
000390 5d fb 49 37 75 d9 0b 38 c9 d7 b5 36 df c8 8b 36
       1.2039059e-05 3.3342705e-05 5.419341e-06 4.1659073e-06
0003a0 4e 47 ae 36 e3 67 a2 36 75 bf 10 38 73 ed 75 37
       5.193905e-06 4.8400702e-06 3.4510584e-05 1.4658423e-05
0003b0 5c a4 02 37 2d 35 32 37 25 6c a8 37 e6 8c 4a 37
       7.786872e-06 1.0622008e-05 2.007752e-05 1.2072944e-05
0003c0 9a 2e 0d 37 ff 9b 31 37 cd fd 42 37 f2 22 f1 36
       8.415105e-06 1.0586343e-05 1.1622394e-05 7.186428e-06
0003d0 f6 da 8e 37 ea 82 ba 37 3b c9 35 38 7b e9 22 37
       1.702968e-05 2.223389e-05 4.3341173e-05 9.710314e-06
0003e0 ab 3b 4a 37 f5 6f 99 37 b6 70 5e 37 dc a4 76 37
       1.2054031e-05 1.8291155e-05 1.3258474e-05 1.4701127e-05
0003f0 34 82 03 37 6f 83 99 37 4c a1 93 37 52 50 67 37
       7.838524e-06 1.8300225e-05 1.7598875e-05 1.3787374e-05

exp_avg f4 [16]
000000 d3 5e 3a bb 6e 83 eb bb db 77 21 bc d2 bf 1a bc
       -0.0028437867 -0.0071872985 -0.009855236 -0.009445148
000010 76 11 59 bb 8d 93 ea bb f5 16 c0 bb af 39 0a 3c
       -0.003312198 -0.0071587027 -0.0058621117 0.008436604
000020 4d 02 84 3b af 2b 16 bc f8 71 d5 ba c4 b0 bd bb
       0.0040285946 -0.009165688 -0.0016284576 -0.0057888944
000030 8d 68 a6 3a 8f 0a 99 3a 45 a6 c8 b8 5d 5d 52 38
       0.0012695953 0.001167612 -9.567713e-05 5.0154853e-05

exp_avg_sq f4 [16]
000000 67 98 7e 37 69 63 99 36 41 07 0f 37 6f 6d dc 37
       1.5175064e-05 4.571328e-06 8.525153e-06 2.6277003e-05
000010 c8 4e 23 37 c9 87 63 36 c1 47 34 36 88 c9 57 37
       9.7339e-06 3.3904673e-06 2.6863856e-06 1.2861921e-05
000020 6e f3 cb 36 8d 2c c8 36 26 34 24 37 61 8c 9c 36
       6.0782104e-06 5.965651e-06 9.7873035e-06 4.6655045e-06
000030 9f 53 53 36 77 38 6d 36 65 b4 1e 37 8c 26 c9 35
       3.1490124e-06 3.534862e-06 9.459535e-06 1.4986886e-06

exp_avg f4 [4, 16]
000000 35 6e 4c 3c 46 27 4d 3b ca c4 b4 bc 1e 4f d0 39
       0.012477447 0.0031303926 -0.022066493 0.00039731798
000010 c8 b8 a6 b9 0f c6 12 3c ef 99 9c bb 16 1b 25 bc
       -0.0003179966 0.008958354 -0.0047790925 -0.010077259
000020 7a 8e 36 3c 42 c2 3a bc 77 61 a3 bb 55 80 cf bb
       0.0111423675 -0.011398854 -0.004985984 -0.006332437
000030 55 ad 86 bc ff d8 68 bb 86 c0 2d 3c 8e 6e cf bb
       -0.016440073 -0.003552973 0.010604983 -0.006330318
000040 a0 74 75 bc 9c 18 25 3a 81 ca 96 ba b0 08 94 bc
       -0.014981419 0.00062979176 -0.0011504443 -0.018070549
000050 4c bb 6a 3c 76 a0 36 3c fc b3 b4 bb 8c d1 58 bb
       0.014326882 0.011146655 -0.00551462 -0.0033083884
000060 fc b6 0e ba 53 d5 a6 3b 2c 46 4b 3b 47 94 10 bb
       -0.0005444137 0.005091348 0.0031017167 -0.0022061036
000070 2f 18 a4 3c a9 79 13 3c a5 fb f4 3b 13 c8 6e 3b
       0.020031063 0.009001174 0.0074762874 0.0036435171
000080 35 7d 20 bc 91 87 83 bc 95 b3 d7 3c 1f 3e d0 3b
       -0.009795477 -0.016055854 0.026330749 0.0063550617
000090 be ee a5 39 3b 95 e3 bc a1 ca 4c 3c 58 58 10 bc
       0.0003164913 -0.02778112 0.012499482 -0.008810125
0000a0 17 f2 2d bc 12 3a 6a 3b 71 cd 9d bb a9 d7 60 3b
       -0.010616801 0.003574018 -0.0048157503 0.003430823
0000b0 c9 00 1d 3c ab d7 37 bb 50 98 44 bc d5 81 46 3b
       0.009582707 -0.0028052132 -0.011999205 0.0030289788
0000c0 9c 83 49 3c c8 73 49 3c ff 10 4c bb d8 6f 39 3c
       0.0122994445 0.012295671 -0.003113806 0.0113181695
0000d0 fd b4 6a bc e8 87 fb 3b aa 8e 10 bb e9 d3 b5 3c
       -0.0143253775 0.0076761134 -0.002205769 0.022195773
0000e0 2c 16 9e 37 55 24 33 3b d4 8b db 3b a1 5e a7 3b
       1.8845392e-05 0.0027334888 0.0067000184 0.005107716
0000f0 7d d6 57 bc fc 35 2d bb 17 4c c7 bb d6 66 b3 b9
       -0.013173697 -0.0026429882 -0.0060820687 -0.0003421816

exp_avg_sq f4 [4, 16]
000000 f3 08 eb 37 de 15 67 37 94 dc 7b 38 77 4d b4 37
       2.801835e-05 1.3773764e-05 6.0048493e-05 2.1493744e-05
000010 0a 0c 9d 37 75 c7 40 38 37 e3 86 38 02 82 36 38
       1.8721465e-05 4.5962126e-05 6.43194e-05 4.351326e-05
000020 5b b2 b9 37 51 89 1c 38 d3 d0 a3 37 52 22 92 37
       2.2136772e-05 3.7321184e-05 1.9528356e-05 1.7420538e-05
000030 1c 16 95 38 10 7b bd 37 4e d3 35 38 cd 72 1e 38
       7.108992e-05 2.2587861e-05 4.3350556e-05 3.7777052e-05
000040 ee 82 fc 37 e7 b2 36 37 ad 02 5d 38 2d db 83 38
       3.010171e-05 1.0889699e-05 5.2692998e-05 6.2873914e-05
000050 a5 22 3e 37 9f a6 1f 38 ce 67 22 38 f3 ea 6d 38
       1.1332949e-05 3.8063732e-05 3.8720485e-05 5.6724017e-05
000060 7b 37 cf 37 bf e4 8c 37 7a 95 1d 38 10 3e 99 36
       2.4702158e-05 1.6795819e-05 3.7570928e-05 4.5669804e-06
000070 13 74 55 38 59 a9 9b 37 48 1e 14 38 12 d9 6b 38
       5.089126e-05 1.8556299e-05 3.531415e-05 5.623053e-05
000080 69 ee 0e 38 e6 bc dc 37 6f d0 01 38 2d 0d 1f 38
       3.4077475e-05 2.6314006e-05 3.0950116e-05 3.7920825e-05
000090 95 a9 85 37 88 41 91 38 10 5e 35 38 28 09 eb 37
       1.5933803e-05 6.926345e-05 4.3241365e-05 2.8018447e-05
0000a0 20 40 94 37 e8 22 35 38 09 0e 09 38 e5 aa be 36
       1.7672835e-05 4.318627e-05 3.2676417e-05 5.682336e-06
0000b0 51 11 7a 38 45 28 b6 37 ce 29 be 37 0e fd 9f 38
       5.9620772e-05 2.1714843e-05 2.2669232e-05 7.628846e-05
0000c0 42 53 9d 37 94 6e f8 36 80 30 23 38 b4 aa 3c 38
       1.8754628e-05 7.403849e-06 3.8907398e-05 4.4981673e-05
0000d0 8a 60 32 38 35 3d a5 37 44 8e 32 38 8c 95 19 38
       4.2528416e-05 1.9698035e-05 4.2571002e-05 3.661732e-05
0000e0 13 c5 86 37 f7 5f 49 37 c7 89 fa 37 16 b5 11 37
       1.6065815e-05 1.2002877e-05 2.986648e-05 8.684836e-06
0000f0 43 34 b4 38 c0 4c 46 37 6d 49 26 38 b8 c2 34 38
       8.592803e-05 1.1819589e-05 3.9645867e-05 4.309669e-05

exp_avg f4 [4]
000000 38 77 2f bc da 60 2f 3b 46 90 a4 bc c7 5f e6 3c
       -0.010709576 0.002676061 -0.020088326 0.028121842

exp_avg_sq f4 [4]
000000 64 02 f4 38 bf 83 01 39 51 85 f5 38 b7 20 07 39
       0.00011635272 0.00012351478 0.000117073425 0.0001288679
